…
+    "project": "digit-recognizer",
+    "heartbeatAt": "2019-11-13T21:33:46.691468",
+    "exitcode": 255
+}
diff --git a/wandb/run-20191113_213341-opwf6x0m/wandb-summary.json b/wandb/run-20191113_213341-opwf6x0m/wandb-summary.json
new file mode 100644
index 0000000..9c16da5
--- /dev/null
+++ b/wandb/run-20191113_213341-opwf6x0m/wandb-summary.json
@@ -0,0 +1,3684 @@
+{
+    "graph_0": {
+        "_type": "graph",
+        "format": "torch",
+        "nodes": [
+            {
+                "name": "models.0",
+                "id": 140584862307048,
+                "class_name": "SuperLeNet(\n  (conv): Sequential(\n    (0): Conv2d(1, 32, kernel_size=(3, 3), stride=(1, 1), padding=(1, 1))\n    (1): ReLU(inplace=True)\n    (2): BatchNorm2d(32, eps=1e-05, momentum=0.1, affine=True, track_running_stats=True)\n    (3): Conv2d(32, 32, kernel_size=(3, 3), stride=(1, 1), padding=(1, 1))\n    (4): ReLU(inplace=True)\n    (5): BatchNorm2d(32, eps=1e-05, momentum=0.1, affine=True, track_running_stats=True)\n    (6): Conv2d(32, 32, kernel_size=(5, 5), stride=(2, 2))\n    (7): ReLU(inplace=True)\n    (8): BatchNorm2d(32, eps=1e-05, momentum=0.1, affine=True, track_running_stats=True)\n    (9): Dropout(p=0.4, inplace=False)\n    (10): Conv2d(32, 64, kernel_size=(3, 3), stride=(1, 1), padding=(1, 1))\n    (11): ReLU(inplace=True)\n    (12): BatchNorm2d(64, eps=1e-05, momentum=0.1, affine=True, track_running_stats=True)\n    (13): Conv2d(64, 64, kernel_size=(3, 3), stride=(1, 1), padding=(1, 1))\n    (14): ReLU(inplace=True)\n    (15): BatchNorm2d(64, eps=1e-05, momentum=0.1, affine=True, track_running_stats=True)\n    (16): Conv2d(64, 64, kernel_size=(5, 5), stride=(2, 2))\n    (17): ReLU(inplace=True)\n    (18): BatchNorm2d(64, eps=1e-05, momentum=0.1, affine=True, track_running_stats=True)\n    (19): Dropout(p=0.4, inplace=False)\n  )\n  (fc): Sequential(\n    (0): Linear(in_features=1024, out_features=128, bias=True)\n    (1): ReLU(inplace=True)\n    (2): BatchNorm1d(128, eps=1e-05, momentum=0.1, affine=True, track_running_stats=True)\n    (3): Dropout(p=0.4, inplace=False)\n    (4): Linear(in_features=128, out_features=10, bias=True)\n  )\n)",
+                "parameters": [
+                    [
+                        "conv.0.weight",
+                        [
+                            32,
+                            1,
+                            3,
+                            3
+                        ]
+                    ],
+                    [
+                        "conv.0.bias",
…
